ST Edge AI Core v1.0.0-19894
Created date          : 2024-11-08 16:26:53
Parameters            : generate --target stm32h7 --name network -m E:/STM32_H7/test-for-stm-ssd/ssd_lite.tflite --compression none --verbosity 1 --allocate-inputs --allocate-outputs --workspace C:/Users/al/AppData/Local/Temp/mxAI_workspace2612523728110012893208639520512602 --output C:/Users/al/.stm32cubemx/network_output

Exec/report summary (generate)
----------------------------------------------------------------------------------------------------------------------------------
model file         :   E:\STM32_H7\test-for-stm-ssd\ssd_lite.tflite                                                               
type               :   tflite                                                                                                     
c_name             :   network                                                                                                    
compression        :   none                                                                                                       
options            :   allocate-inputs, allocate-outputs                                                                          
optimization       :   balanced                                                                                                   
target/series      :   stm32h7                                                                                                    
workspace dir      :   C:\Users\al\AppData\Local\Temp\mxAI_workspace2612523728110012893208639520512602                            
output dir         :   C:\Users\al\.stm32cubemx\network_output                                                                    
model_fmt          :   sa/sa per tensor                                                                                           
model_name         :   ssd_lite                                                                                                   
model_hash         :   0xb7d3c0693eef166c91ef2d077d5a4596                                                                         
params #           :   436,590 items (438.28 KiB)                                                                                 
----------------------------------------------------------------------------------------------------------------------------------
input 1/1          :   'serving_default_input_10', uint8(1x192x192x3), 108.00 KBytes, QLinear(1.000000000,0,uint8), activations   
output 1/3         :   'conversion_126', f32(1x3830x2), 29.92 KBytes, activations                                                 
output 2/3         :   'conversion_133', f32(1x3830x4), 59.84 KBytes, activations                                                 
output 3/3         :   'conversion_141', f32(1x3830x4), 59.84 KBytes, activations                                                 
outputs (total)    :   0 Bytes                                                                                                    
macc               :   40,482,578                                                                                                 
weights (ro)       :   448,800 B (438.28 KiB) (1 segment) / -1,297,560(-74.3%) vs float model                                     
activations (rw)   :   246,256 B (240.48 KiB) (1 segment) *                                                                       
ram (total)        :   246,256 B (240.48 KiB) = 246,256 + 0 + 0                                                                   
----------------------------------------------------------------------------------------------------------------------------------
(*) 'input'/'output' buffers can be used from the activations buffer

Model name - ssd_lite
------ ----------------------------------------------- ----------------------- --------------- ----------- -------------------------- --- ------------------ ------------------- ---------------------- 
m_id   layer (type,original)                           oshape                  param/size             macc               connected to   | c_size             c_macc              c_type                 
------ ----------------------------------------------- ----------------------- --------------- ----------- -------------------------- --- ------------------ ------------------- ---------------------- 
0      serving_default_input_10 (Input, )              [b:1,h:192,w:192,c:3]                                                            |                    +221,184(+100.0%)   Conversion_[1]         
       conversion_0 (Conversion, QUANTIZE)             [b:1,h:192,w:192,c:3]                       221,184   serving_default_input_10   |                    -221,184(-100.0%)   
------ ----------------------------------------------- ----------------------- --------------- ----------- -------------------------- --- ------------------ ------------------- ---------------------- 
1      conv2d_1 (Conv2D, CONV_2D)                      [b:1,h:96,w:96,c:8]     224/248           1,990,664               conversion_0   |                                        Conv2D_[2]             
       nl_1_nl (Nonlinearity, CONV_2D)                 [b:1,h:96,w:96,c:8]                          73,728                   conv2d_1   |                    -73,728(-100.0%)    
------ ----------------------------------------------- ----------------------- --------------- ----------- -------------------------- --- ------------------ ------------------- ---------------------- 
2      conv2d_2 (Conv2D, DEPTHWISE_CONV_2D)            [b:1,h:96,w:96,c:8]     80/104              663,560                    nl_1_nl   |                                        Pad_/Conv2D_[3, 4]     
       nl_2_nl (Nonlinearity, DEPTHWISE_CONV_2D)       [b:1,h:96,w:96,c:8]                          73,728                   conv2d_2   |                    -73,728(-100.0%)    
------ ----------------------------------------------- ----------------------- --------------- ----------- -------------------------- --- ------------------ ------------------- ---------------------- 
3      conv2d_3 (Conv2D, CONV_2D)                      [b:1,h:96,w:96,c:16]    144/192           1,179,664                    nl_2_nl   |                                        Conv2D_[5]             
       nl_3_nl (Nonlinearity, CONV_2D)                 [b:1,h:96,w:96,c:16]                        147,456                   conv2d_3   |                    -147,456(-100.0%)   
------ ----------------------------------------------- ----------------------- --------------- ----------- -------------------------- --- ------------------ ------------------- ---------------------- 
4      pad_4 (Pad, PAD)                                [b:1,h:97,w:97,c:16]                                                   nl_3_nl   |                                        Pad_[6]                
------ ----------------------------------------------- ----------------------- --------------- ----------- -------------------------- --- ------------------ ------------------- ---------------------- 
5      conv2d_5 (Conv2D, DEPTHWISE_CONV_2D)            [b:1,h:48,w:48,c:16]    160/208             331,792                      pad_4   |                                        Conv2D_[7]             
       nl_5_nl (Nonlinearity, DEPTHWISE_CONV_2D)       [b:1,h:48,w:48,c:16]                         36,864                   conv2d_5   |                    -36,864(-100.0%)    
------ ----------------------------------------------- ----------------------- --------------- ----------- -------------------------- --- ------------------ ------------------- ---------------------- 
6      conv2d_6 (Conv2D, CONV_2D)                      [b:1,h:48,w:48,c:32]    544/640           1,179,680                    nl_5_nl   |                                        Conv2D_[8]             
       nl_6_nl (Nonlinearity, CONV_2D)                 [b:1,h:48,w:48,c:32]                         73,728                   conv2d_6   |                    -73,728(-100.0%)    
------ ----------------------------------------------- ----------------------- --------------- ----------- -------------------------- --- ------------------ ------------------- ---------------------- 
7      conv2d_7 (Conv2D, DEPTHWISE_CONV_2D)            [b:1,h:48,w:48,c:32]    320/416             663,584                    nl_6_nl   |                                        Pad_/Conv2D_[9, 10]    
       nl_7_nl (Nonlinearity, DEPTHWISE_CONV_2D)       [b:1,h:48,w:48,c:32]                         73,728                   conv2d_7   |                    -73,728(-100.0%)    
------ ----------------------------------------------- ----------------------- --------------- ----------- -------------------------- --- ------------------ ------------------- ---------------------- 
8      conv2d_8 (Conv2D, CONV_2D)                      [b:1,h:48,w:48,c:32]    1,056/1,152       2,359,328                    nl_7_nl   |                                        Conv2D_[11]            
       nl_8_nl (Nonlinearity, CONV_2D)                 [b:1,h:48,w:48,c:32]                         73,728                   conv2d_8   |                    -73,728(-100.0%)    
------ ----------------------------------------------- ----------------------- --------------- ----------- -------------------------- --- ------------------ ------------------- ---------------------- 
9      pad_9 (Pad, PAD)                                [b:1,h:49,w:49,c:32]                                                   nl_8_nl   |                                        Pad_[12]               
------ ----------------------------------------------- ----------------------- --------------- ----------- -------------------------- --- ------------------ ------------------- ---------------------- 
10     conv2d_10 (Conv2D, DEPTHWISE_CONV_2D)           [b:1,h:24,w:24,c:32]    320/416             165,920                      pad_9   |                                        Conv2D_[13]            
       nl_10_nl (Nonlinearity, DEPTHWISE_CONV_2D)      [b:1,h:24,w:24,c:32]                         18,432                  conv2d_10   |                    -18,432(-100.0%)    
------ ----------------------------------------------- ----------------------- --------------- ----------- -------------------------- --- ------------------ ------------------- ---------------------- 
11     conv2d_11 (Conv2D, CONV_2D)                     [b:1,h:24,w:24,c:64]    2,112/2,304       1,179,712                   nl_10_nl   |                                        Conv2D_[14]            
       nl_11_nl (Nonlinearity, CONV_2D)                [b:1,h:24,w:24,c:64]                         36,864                  conv2d_11   |                    -36,864(-100.0%)    
------ ----------------------------------------------- ----------------------- --------------- ----------- -------------------------- --- ------------------ ------------------- ---------------------- 
12     conv2d_12 (Conv2D, DEPTHWISE_CONV_2D)           [b:1,h:24,w:24,c:64]    640/832             331,840                   nl_11_nl   |                                        Pad_/Conv2D_[15, 16]   
       nl_12_nl (Nonlinearity, DEPTHWISE_CONV_2D)      [b:1,h:24,w:24,c:64]                         36,864                  conv2d_12   |                    -36,864(-100.0%)    
------ ----------------------------------------------- ----------------------- --------------- ----------- -------------------------- --- ------------------ ------------------- ---------------------- 
13     conv2d_13 (Conv2D, CONV_2D)                     [b:1,h:24,w:24,c:64]    4,160/4,352       2,359,360                   nl_12_nl   |                                        Conv2D_[17]            
       nl_13_nl (Nonlinearity, CONV_2D)                [b:1,h:24,w:24,c:64]                         36,864                  conv2d_13   |                    -36,864(-100.0%)    
------ ----------------------------------------------- ----------------------- --------------- ----------- -------------------------- --- ------------------ ------------------- ---------------------- 
14     conv2d_14 (Conv2D, CONV_2D)                     [b:1,h:24,w:24,c:32]    2,080/2,176       1,179,680                   nl_13_nl   |                                        Conv2D_[77]            
------ ----------------------------------------------- ----------------------- --------------- ----------- -------------------------- --- ------------------ ------------------- ---------------------- 
15     pad_15 (Pad, PAD)                               [b:1,h:25,w:25,c:64]                                                  nl_13_nl   |                                        Pad_[18]               
------ ----------------------------------------------- ----------------------- --------------- ----------- -------------------------- --- ------------------ ------------------- ---------------------- 
16     conv2d_16 (Conv2D, DEPTHWISE_CONV_2D)           [b:1,h:12,w:12,c:64]    640/832              83,008                     pad_15   |                                        Conv2D_[19]            
       nl_16_nl (Nonlinearity, DEPTHWISE_CONV_2D)      [b:1,h:12,w:12,c:64]                          9,216                  conv2d_16   |                    -9,216(-100.0%)     
------ ----------------------------------------------- ----------------------- --------------- ----------- -------------------------- --- ------------------ ------------------- ---------------------- 
17     conv2d_17 (Conv2D, CONV_2D)                     [b:1,h:12,w:12,c:128]   8,320/8,704       1,179,776                   nl_16_nl   |                                        Conv2D_[20]            
       nl_17_nl (Nonlinearity, CONV_2D)                [b:1,h:12,w:12,c:128]                        18,432                  conv2d_17   |                    -18,432(-100.0%)    
------ ----------------------------------------------- ----------------------- --------------- ----------- -------------------------- --- ------------------ ------------------- ---------------------- 
18     conv2d_18 (Conv2D, DEPTHWISE_CONV_2D)           [b:1,h:12,w:12,c:128]   1,280/1,664         166,016                   nl_17_nl   |                                        Pad_/Conv2D_[21, 22]   
       nl_18_nl (Nonlinearity, DEPTHWISE_CONV_2D)      [b:1,h:12,w:12,c:128]                        18,432                  conv2d_18   |                    -18,432(-100.0%)    
------ ----------------------------------------------- ----------------------- --------------- ----------- -------------------------- --- ------------------ ------------------- ---------------------- 
19     conv2d_19 (Conv2D, CONV_2D)                     [b:1,h:12,w:12,c:128]   16,512/16,896     2,359,424                   nl_18_nl   |                                        Conv2D_[23]            
       nl_19_nl (Nonlinearity, CONV_2D)                [b:1,h:12,w:12,c:128]                        18,432                  conv2d_19   |                    -18,432(-100.0%)    
------ ----------------------------------------------- ----------------------- --------------- ----------- -------------------------- --- ------------------ ------------------- ---------------------- 
20     conv2d_20 (Conv2D, DEPTHWISE_CONV_2D)           [b:1,h:12,w:12,c:128]   1,280/1,664         166,016                   nl_19_nl   |                                        Pad_/Conv2D_[24, 25]   
       nl_20_nl (Nonlinearity, DEPTHWISE_CONV_2D)      [b:1,h:12,w:12,c:128]                        18,432                  conv2d_20   |                    -18,432(-100.0%)    
------ ----------------------------------------------- ----------------------- --------------- ----------- -------------------------- --- ------------------ ------------------- ---------------------- 
21     conv2d_21 (Conv2D, CONV_2D)                     [b:1,h:12,w:12,c:128]   16,512/16,896     2,359,424                   nl_20_nl   |                                        Conv2D_[26]            
       nl_21_nl (Nonlinearity, CONV_2D)                [b:1,h:12,w:12,c:128]                        18,432                  conv2d_21   |                    -18,432(-100.0%)    
------ ----------------------------------------------- ----------------------- --------------- ----------- -------------------------- --- ------------------ ------------------- ---------------------- 
22     conv2d_22 (Conv2D, DEPTHWISE_CONV_2D)           [b:1,h:12,w:12,c:128]   1,280/1,664         166,016                   nl_21_nl   |                                        Pad_/Conv2D_[27, 28]   
       nl_22_nl (Nonlinearity, DEPTHWISE_CONV_2D)      [b:1,h:12,w:12,c:128]                        18,432                  conv2d_22   |                    -18,432(-100.0%)    
------ ----------------------------------------------- ----------------------- --------------- ----------- -------------------------- --- ------------------ ------------------- ---------------------- 
23     conv2d_23 (Conv2D, CONV_2D)                     [b:1,h:12,w:12,c:128]   16,512/16,896     2,359,424                   nl_22_nl   |                                        Conv2D_[29]            
       nl_23_nl (Nonlinearity, CONV_2D)                [b:1,h:12,w:12,c:128]                        18,432                  conv2d_23   |                    -18,432(-100.0%)    
------ ----------------------------------------------- ----------------------- --------------- ----------- -------------------------- --- ------------------ ------------------- ---------------------- 
24     conv2d_24 (Conv2D, DEPTHWISE_CONV_2D)           [b:1,h:12,w:12,c:128]   1,280/1,664         166,016                   nl_23_nl   |                                        Pad_/Conv2D_[30, 31]   
       nl_24_nl (Nonlinearity, DEPTHWISE_CONV_2D)      [b:1,h:12,w:12,c:128]                        18,432                  conv2d_24   |                    -18,432(-100.0%)    
------ ----------------------------------------------- ----------------------- --------------- ----------- -------------------------- --- ------------------ ------------------- ---------------------- 
25     conv2d_25 (Conv2D, CONV_2D)                     [b:1,h:12,w:12,c:128]   16,512/16,896     2,359,424                   nl_24_nl   |                                        Conv2D_[32]            
       nl_25_nl (Nonlinearity, CONV_2D)                [b:1,h:12,w:12,c:128]                        18,432                  conv2d_25   |                    -18,432(-100.0%)    
------ ----------------------------------------------- ----------------------- --------------- ----------- -------------------------- --- ------------------ ------------------- ---------------------- 
26     conv2d_26 (Conv2D, DEPTHWISE_CONV_2D)           [b:1,h:12,w:12,c:128]   1,280/1,664         166,016                   nl_25_nl   |                                        Pad_/Conv2D_[33, 34]   
       nl_26_nl (Nonlinearity, DEPTHWISE_CONV_2D)      [b:1,h:12,w:12,c:128]                        18,432                  conv2d_26   |                    -18,432(-100.0%)    
------ ----------------------------------------------- ----------------------- --------------- ----------- -------------------------- --- ------------------ ------------------- ---------------------- 
27     conv2d_27 (Conv2D, CONV_2D)                     [b:1,h:12,w:12,c:128]   16,512/16,896     2,359,424                   nl_26_nl   |                                        Conv2D_[35]            
       nl_27_nl (Nonlinearity, CONV_2D)                [b:1,h:12,w:12,c:128]                        18,432                  conv2d_27   |                    -18,432(-100.0%)    
------ ----------------------------------------------- ----------------------- --------------- ----------- -------------------------- --- ------------------ ------------------- ---------------------- 
28     conv2d_28 (Conv2D, CONV_2D)                     [b:1,h:12,w:12,c:32]    4,128/4,224         589,856                   nl_27_nl   |                                        Conv2D_[70]            
------ ----------------------------------------------- ----------------------- --------------- ----------- -------------------------- --- ------------------ ------------------- ---------------------- 
29     pad_29 (Pad, PAD)                               [b:1,h:13,w:13,c:128]                                                 nl_27_nl   |                                        Pad_[36]               
------ ----------------------------------------------- ----------------------- --------------- ----------- -------------------------- --- ------------------ ------------------- ---------------------- 
30     conv2d_30 (Conv2D, DEPTHWISE_CONV_2D)           [b:1,h:6,w:6,c:128]     1,280/1,664          41,600                     pad_29   |                                        Conv2D_[37]            
       nl_30_nl (Nonlinearity, DEPTHWISE_CONV_2D)      [b:1,h:6,w:6,c:128]                           4,608                  conv2d_30   |                    -4,608(-100.0%)     
------ ----------------------------------------------- ----------------------- --------------- ----------- -------------------------- --- ------------------ ------------------- ---------------------- 
31     conv2d_31 (Conv2D, CONV_2D)                     [b:1,h:6,w:6,c:256]     33,024/33,792     1,179,904                   nl_30_nl   |                                        Conv2D_[38]            
       nl_31_nl (Nonlinearity, CONV_2D)                [b:1,h:6,w:6,c:256]                           9,216                  conv2d_31   |                    -9,216(-100.0%)     
------ ----------------------------------------------- ----------------------- --------------- ----------- -------------------------- --- ------------------ ------------------- ---------------------- 
32     conv2d_32 (Conv2D, DEPTHWISE_CONV_2D)           [b:1,h:6,w:6,c:256]     2,560/3,328          83,200                   nl_31_nl   |                                        Pad_/Conv2D_[39, 40]   
       nl_32_nl (Nonlinearity, DEPTHWISE_CONV_2D)      [b:1,h:6,w:6,c:256]                           9,216                  conv2d_32   |                    -9,216(-100.0%)     
------ ----------------------------------------------- ----------------------- --------------- ----------- -------------------------- --- ------------------ ------------------- ---------------------- 
33     conv2d_33 (Conv2D, CONV_2D)                     [b:1,h:6,w:6,c:256]     65,792/66,560     2,359,552                   nl_32_nl   |                                        Conv2D_[41]            
       nl_33_nl (Nonlinearity, CONV_2D)                [b:1,h:6,w:6,c:256]                           9,216                  conv2d_33   |                    -9,216(-100.0%)     
------ ----------------------------------------------- ----------------------- --------------- ----------- -------------------------- --- ------------------ ------------------- ---------------------- 
34     conv2d_34 (Conv2D, CONV_2D)                     [b:1,h:6,w:6,c:32]      8,224/8,320         294,944                   nl_33_nl   |                                        Conv2D_[63]            
------ ----------------------------------------------- ----------------------- --------------- ----------- -------------------------- --- ------------------ ------------------- ---------------------- 
35     conv2d_35 (Conv2D, DEPTHWISE_CONV_2D)           [b:1,h:3,w:3,c:256]     2,560/3,328          20,992                   nl_33_nl   |                                        Pad_/Conv2D_[42, 43]   
       nl_35_nl (Nonlinearity, DEPTHWISE_CONV_2D)      [b:1,h:3,w:3,c:256]                           2,304                  conv2d_35   |                    -2,304(-100.0%)     
------ ----------------------------------------------- ----------------------- --------------- ----------- -------------------------- --- ------------------ ------------------- ---------------------- 
36     conv2d_36 (Conv2D, CONV_2D)                     [b:1,h:3,w:3,c:256]     65,792/66,560       590,080                   nl_35_nl   |                                        Conv2D_[44]            
       nl_36_nl (Nonlinearity, CONV_2D)                [b:1,h:3,w:3,c:256]                           2,304                  conv2d_36   |                    -2,304(-100.0%)     
------ ----------------------------------------------- ----------------------- --------------- ----------- -------------------------- --- ------------------ ------------------- ---------------------- 
37     conv2d_37 (Conv2D, DEPTHWISE_CONV_2D)           [b:1,h:3,w:3,c:256]     2,560/3,328          20,992                   nl_36_nl   |                                        Pad_/Conv2D_[45, 46]   
       nl_37_nl (Nonlinearity, DEPTHWISE_CONV_2D)      [b:1,h:3,w:3,c:256]                           2,304                  conv2d_37   |                    -2,304(-100.0%)     
------ ----------------------------------------------- ----------------------- --------------- ----------- -------------------------- --- ------------------ ------------------- ---------------------- 
38     conv2d_38 (Conv2D, CONV_2D)                     [b:1,h:3,w:3,c:256]     65,792/66,560       590,080                   nl_37_nl   |                                        Conv2D_[47]            
       nl_38_nl (Nonlinearity, CONV_2D)                [b:1,h:3,w:3,c:256]                           2,304                  conv2d_38   |                    -2,304(-100.0%)     
------ ----------------------------------------------- ----------------------- --------------- ----------- -------------------------- --- ------------------ ------------------- ---------------------- 
39     conv2d_39 (Conv2D, CONV_2D)                     [b:1,h:3,w:3,c:32]      8,224/8,320          73,760                   nl_38_nl   |                                        Conv2D_[56]            
------ ----------------------------------------------- ----------------------- --------------- ----------- -------------------------- --- ------------------ ------------------- ---------------------- 
40     pool_40 (Pool, MEAN)                            [b:1,h:1,w:1,c:256]                           2,304                   nl_38_nl   |                                        Pool_[48]              
       reshape_40_reshape (Reshape, MEAN)              [b:1,c:256]                                                            pool_40   |                                        
------ ----------------------------------------------- ----------------------- --------------- ----------- -------------------------- --- ------------------ ------------------- ---------------------- 
44     reshape_44 (Reshape, RESHAPE)                   [b:1,h:1,w:1,c:256]                                         reshape_40_reshape   |                                        
------ ----------------------------------------------- ----------------------- --------------- ----------- -------------------------- --- ------------------ ------------------- ---------------------- 
45     conv2d_45 (Conv2D, CONV_2D)                     [b:1,h:1,w:1,c:32]      8,224/8,320           8,224                 reshape_44   |                                        Conv2D_[49]            
------ ----------------------------------------------- ----------------------- --------------- ----------- -------------------------- --- ------------------ ------------------- ---------------------- 
46     conv2d_46 (Conv2D, CONV_2D)                     [b:1,h:1,w:1,c:10]      2,890/2,920           2,890                  conv2d_45   |                                        Pad_/Conv2D_[50, 51]   
------ ----------------------------------------------- ----------------------- --------------- ----------- -------------------------- --- ------------------ ------------------- ---------------------- 
50     reshape_50 (Reshape, RESHAPE)                   [b:1,h:5,c:2]                                                        conv2d_46   |                                        
------ ----------------------------------------------- ----------------------- --------------- ----------- -------------------------- --- ------------------ ------------------- ---------------------- 
51     conv2d_51 (Conv2D, CONV_2D)                     [b:1,h:1,w:1,c:20]      5,780/5,840           5,780                  conv2d_45   |                                        Pad_/Conv2D_[52, 53]   
------ ----------------------------------------------- ----------------------- --------------- ----------- -------------------------- --- ------------------ ------------------- ---------------------- 
55     reshape_55 (Reshape, RESHAPE)                   [b:1,h:5,c:4]                                                        conv2d_51   |                                        
------ ----------------------------------------------- ----------------------- --------------- ----------- -------------------------- --- ------------------ ------------------- ---------------------- 
62     tile_62 (Tile, RESIZE_BILINEAR)                 [b:1,h:2,w:2,c:32]                                                   conv2d_45   |                                        Tile_[54]              
------ ----------------------------------------------- ----------------------- --------------- ----------- -------------------------- --- ------------------ ------------------- ---------------------- 
63     pad_63 (Pad, PAD)                               [b:1,h:3,w:3,c:32]                                                     tile_62   |                                        Pad_[55]               
------ ----------------------------------------------- ----------------------- --------------- ----------- -------------------------- --- ------------------ ------------------- ---------------------- 
64     eltwise_64 (Eltwise, ADD)                       [b:1,h:3,w:3,c:32]                              288                  conv2d_39   |                                        Eltwise/add_[57]       
                                                                                                                               pad_63   | 
------ ----------------------------------------------- ----------------------- --------------- ----------- -------------------------- --- ------------------ ------------------- ---------------------- 
65     conv2d_65 (Conv2D, CONV_2D)                     [b:1,h:3,w:3,c:20]      5,780/5,840          51,860                 eltwise_64   |                                        Pad_/Conv2D_[58, 59]   
------ ----------------------------------------------- ----------------------- --------------- ----------- -------------------------- --- ------------------ ------------------- ---------------------- 
69     reshape_69 (Reshape, RESHAPE)                   [b:1,h:45,c:4]                                                       conv2d_65   |                                        
------ ----------------------------------------------- ----------------------- --------------- ----------- -------------------------- --- ------------------ ------------------- ---------------------- 
76     conv2d_76 (Conv2D, CONV_2D)                     [b:1,h:3,w:3,c:10]      2,890/2,920          25,930                 eltwise_64   |                                        Pad_/Conv2D_[60, 61]   
------ ----------------------------------------------- ----------------------- --------------- ----------- -------------------------- --- ------------------ ------------------- ---------------------- 
80     reshape_80 (Reshape, RESHAPE)                   [b:1,h:45,c:2]                                                       conv2d_76   |                                        
------ ----------------------------------------------- ----------------------- --------------- ----------- -------------------------- --- ------------------ ------------------- ---------------------- 
81     upsample_81 (Upsample, RESIZE_BILINEAR)         [b:1,h:6,w:6,c:32]                            4,608                 eltwise_64   |                                        Upsample_[62]          
------ ----------------------------------------------- ----------------------- --------------- ----------- -------------------------- --- ------------------ ------------------- ---------------------- 
82     eltwise_82 (Eltwise, ADD)                       [b:1,h:6,w:6,c:32]                            1,152                  conv2d_34   |                                        Eltwise/add_[64]       
                                                                                                                          upsample_81   | 
------ ----------------------------------------------- ----------------------- --------------- ----------- -------------------------- --- ------------------ ------------------- ---------------------- 
83     conv2d_83 (Conv2D, CONV_2D)                     [b:1,h:6,w:6,c:10]      2,890/2,920         103,690                 eltwise_82   |                                        Pad_/Conv2D_[65, 66]   
------ ----------------------------------------------- ----------------------- --------------- ----------- -------------------------- --- ------------------ ------------------- ---------------------- 
87     reshape_87 (Reshape, RESHAPE)                   [b:1,h:180,c:2]                                                      conv2d_83   |                                        
------ ----------------------------------------------- ----------------------- --------------- ----------- -------------------------- --- ------------------ ------------------- ---------------------- 
88     conv2d_88 (Conv2D, CONV_2D)                     [b:1,h:6,w:6,c:20]      5,780/5,840         207,380                 eltwise_82   |                                        Pad_/Conv2D_[67, 68]   
------ ----------------------------------------------- ----------------------- --------------- ----------- -------------------------- --- ------------------ ------------------- ---------------------- 
92     reshape_92 (Reshape, RESHAPE)                   [b:1,h:180,c:4]                                                      conv2d_88   |                                        
------ ----------------------------------------------- ----------------------- --------------- ----------- -------------------------- --- ------------------ ------------------- ---------------------- 
99     upsample_99 (Upsample, RESIZE_BILINEAR)         [b:1,h:12,w:12,c:32]                         18,432                 eltwise_82   |                                        Upsample_[69]          
------ ----------------------------------------------- ----------------------- --------------- ----------- -------------------------- --- ------------------ ------------------- ---------------------- 
100    eltwise_100 (Eltwise, ADD)                      [b:1,h:12,w:12,c:32]                          4,608                  conv2d_28   |                                        Eltwise/add_[71]       
                                                                                                                          upsample_99   | 
------ ----------------------------------------------- ----------------------- --------------- ----------- -------------------------- --- ------------------ ------------------- ---------------------- 
101    conv2d_101 (Conv2D, CONV_2D)                    [b:1,h:12,w:12,c:10]    2,890/2,920         414,730                eltwise_100   |                                        Pad_/Conv2D_[72, 73]   
------ ----------------------------------------------- ----------------------- --------------- ----------- -------------------------- --- ------------------ ------------------- ---------------------- 
105    reshape_105 (Reshape, RESHAPE)                  [b:1,h:720,c:2]                                                     conv2d_101   |                                        
------ ----------------------------------------------- ----------------------- --------------- ----------- -------------------------- --- ------------------ ------------------- ---------------------- 
106    conv2d_106 (Conv2D, CONV_2D)                    [b:1,h:12,w:12,c:20]    5,780/5,840         829,460                eltwise_100   |                                        Pad_/Conv2D_[74, 75]   
------ ----------------------------------------------- ----------------------- --------------- ----------- -------------------------- --- ------------------ ------------------- ---------------------- 
110    reshape_110 (Reshape, RESHAPE)                  [b:1,h:720,c:4]                                                     conv2d_106   |                                        
------ ----------------------------------------------- ----------------------- --------------- ----------- -------------------------- --- ------------------ ------------------- ---------------------- 
117    upsample_117 (Upsample, RESIZE_BILINEAR)        [b:1,h:24,w:24,c:32]                         73,728                eltwise_100   |                                        Upsample_[76]          
------ ----------------------------------------------- ----------------------- --------------- ----------- -------------------------- --- ------------------ ------------------- ---------------------- 
118    eltwise_118 (Eltwise, ADD)                      [b:1,h:24,w:24,c:32]                         18,432                  conv2d_14   |                                        Eltwise/add_[78]       
                                                                                                                         upsample_117   | 
------ ----------------------------------------------- ----------------------- --------------- ----------- -------------------------- --- ------------------ ------------------- ---------------------- 
119    conv2d_119 (Conv2D, CONV_2D)                    [b:1,h:24,w:24,c:10]    2,890/2,920       1,658,890                eltwise_118   |                                        Pad_/Conv2D_[79, 80]   
------ ----------------------------------------------- ----------------------- --------------- ----------- -------------------------- --- ------------------ ------------------- ---------------------- 
123    reshape_123 (Reshape, RESHAPE)                  [b:1,h:2880,c:2]                                                    conv2d_119   |                                        
------ ----------------------------------------------- ----------------------- --------------- ----------- -------------------------- --- ------------------ ------------------- ---------------------- 
124    concat_124 (Concat, CONCATENATION)              [b:1,h:3830,c:2]                                                   reshape_123   |                                        Concat_[81]            
                                                                                                                          reshape_105   | 
                                                                                                                           reshape_87   | 
                                                                                                                           reshape_80   | 
                                                                                                                           reshape_50   | 
------ ----------------------------------------------- ----------------------- --------------- ----------- -------------------------- --- ------------------ ------------------- ---------------------- 
125    nl_125 (Nonlinearity, SOFTMAX)                  [b:1,h:3830,c:2]                            114,900                 concat_124   |                                        Nonlinearity_[82]      
------ ----------------------------------------------- ----------------------- --------------- ----------- -------------------------- --- ------------------ ------------------- ---------------------- 
126    conversion_126 (Conversion, DEQUANTIZE)         [b:1,h:3830,c:2]                             15,320                     nl_125   |                                        Conversion_[o][83]     
------ ----------------------------------------------- ----------------------- --------------- ----------- -------------------------- --- ------------------ ------------------- ---------------------- 
127    conv2d_127 (Conv2D, CONV_2D)                    [b:1,h:24,w:24,c:20]    5,780/5,840       3,317,780                eltwise_118   |                                        Pad_/Conv2D_[84, 85]   
------ ----------------------------------------------- ----------------------- --------------- ----------- -------------------------- --- ------------------ ------------------- ---------------------- 
131    reshape_131 (Reshape, RESHAPE)                  [b:1,h:2880,c:4]                                                    conv2d_127   |                                        
------ ----------------------------------------------- ----------------------- --------------- ----------- -------------------------- --- ------------------ ------------------- ---------------------- 
132    concat_132 (Concat, CONCATENATION)              [b:1,h:3830,c:4]                                                   reshape_131   |                                        Concat_[86]            
                                                                                                                          reshape_110   | 
                                                                                                                           reshape_92   | 
                                                                                                                           reshape_69   | 
                                                                                                                           reshape_55   | 
------ ----------------------------------------------- ----------------------- --------------- ----------- -------------------------- --- ------------------ ------------------- ---------------------- 
133    conversion_133 (Conversion, DEQUANTIZE)         [b:1,h:3830,c:4]                             30,640                 concat_132   |                                        Conversion_[o][87]     
------ ----------------------------------------------- ----------------------- --------------- ----------- -------------------------- --- ------------------ ------------------- ---------------------- 
140    concat_140_const (Placeholder, CONCATENATION)   [b:1,h:3830,c:4]        15,320/15,320                                            | -15,320(-100.0%)                       
------ ----------------------------------------------- ----------------------- --------------- ----------- -------------------------- --- ------------------ ------------------- ---------------------- 
141    conversion_141 (Conversion, DEQUANTIZE)         [b:1,h:3830,c:4]                             30,640           concat_140_const   | +15,320(+100.0%)                       Conversion_[o][0]      
------ ----------------------------------------------- ----------------------- --------------- ----------- -------------------------- --- ------------------ ------------------- ---------------------- 
model/c-model: macc=41,418,002/40,482,578 -935,424(-2.3%) weights=448,800/448,800  activations=--/246,256 io=--/0



Generated C-graph summary
------------------------------------------------------------------------------------------------------------------------
model name            : ssd_lite
c-name                : network
c-node #              : 88
c-array #             : 229
activations size      : 246256 (1 segment)
weights size          : 448800 (1 segment)
macc                  : 40482578
inputs                : ['serving_default_input_10_output']
outputs               : ['conversion_126_output', 'conversion_133_output', 'conversion_141_output']

C-Arrays (229)
------ --------------------------------- --------------- ------------------------- ----------- --------- 
c_id   name (*_array)                    item/size       domain/mem-pool           c-type      comment   
------ --------------------------------- --------------- ------------------------- ----------- --------- 
0      concat_124_output                 7660/7660       activations/**default**   s8                    
1      concat_132_output                 15320/15320     activations/**default**   s8                    
2      concat_140_const                  15320/15320     weights/weights           const s8              
3      conv2d_101_bias                   10/40           weights/weights           const s32             
4      conv2d_101_output                 1440/1440       activations/**default**   s8                    
5      conv2d_101_pad_before_output      6272/6272       activations/**default**   s8                    
6      conv2d_101_scratch0               6412/6412       activations/**default**   s8                    
7      conv2d_101_weights                2880/2880       weights/weights           const s8              
8      conv2d_106_bias                   20/80           weights/weights           const s32             
9      conv2d_106_output                 2880/2880       activations/**default**   s8                    
10     conv2d_106_pad_before_output      6272/6272       activations/**default**   s8                    
11     conv2d_106_scratch0               6552/6552       activations/**default**   s8                    
12     conv2d_106_weights                5760/5760       weights/weights           const s8              
13     conv2d_10_bias                    32/128          weights/weights           const s32             
14     conv2d_10_output                  18432/18432     activations/**default**   s8                    
15     conv2d_10_pad_before_output       76832/76832     activations/**default**   s8                    
16     conv2d_10_scratch0                1185/1185       activations/**default**   s8                    
17     conv2d_10_weights                 288/288         weights/weights           const s8              
18     conv2d_119_bias                   10/40           weights/weights           const s32             
19     conv2d_119_output                 5760/5760       activations/**default**   s8                    
20     conv2d_119_pad_before_output      21632/21632     activations/**default**   s8                    
21     conv2d_119_scratch0               6412/6412       activations/**default**   s8                    
22     conv2d_119_weights                2880/2880       weights/weights           const s8              
23     conv2d_11_bias                    64/256          weights/weights           const s32             
24     conv2d_11_output                  36864/36864     activations/**default**   s8                    
25     conv2d_11_scratch0                768/768         activations/**default**   s8                    
26     conv2d_11_weights                 2048/2048       weights/weights           const s8              
27     conv2d_127_bias                   20/80           weights/weights           const s32             
28     conv2d_127_output                 11520/11520     activations/**default**   s8                    
29     conv2d_127_pad_before_output      21632/21632     activations/**default**   s8                    
30     conv2d_127_scratch0               6552/6552       activations/**default**   s8                    
31     conv2d_127_weights                5760/5760       weights/weights           const s8              
32     conv2d_12_bias                    64/256          weights/weights           const s32             
33     conv2d_12_output                  36864/36864     activations/**default**   s8                    
34     conv2d_12_pad_before_output       43264/43264     activations/**default**   s8                    
35     conv2d_12_scratch0                2369/2369       activations/**default**   s8                    
36     conv2d_12_weights                 576/576         weights/weights           const s8              
37     conv2d_13_bias                    64/256          weights/weights           const s32             
38     conv2d_13_output                  36864/36864     activations/**default**   s8                    
39     conv2d_13_scratch0                896/896         activations/**default**   s8                    
40     conv2d_13_weights                 4096/4096       weights/weights           const s8              
41     conv2d_14_bias                    32/128          weights/weights           const s32             
42     conv2d_14_output                  18432/18432     activations/**default**   s8                    
43     conv2d_14_scratch0                576/576         activations/**default**   s8                    
44     conv2d_14_weights                 2048/2048       weights/weights           const s8              
45     conv2d_16_bias                    64/256          weights/weights           const s32             
46     conv2d_16_output                  9216/9216       activations/**default**   s8                    
47     conv2d_16_pad_before_output       40000/40000     activations/**default**   s8                    
48     conv2d_16_scratch0                2369/2369       activations/**default**   s8                    
49     conv2d_16_weights                 576/576         weights/weights           const s8              
50     conv2d_17_bias                    128/512         weights/weights           const s32             
51     conv2d_17_output                  18432/18432     activations/**default**   s8                    
52     conv2d_17_scratch0                1536/1536       activations/**default**   s8                    
53     conv2d_17_weights                 8192/8192       weights/weights           const s8              
54     conv2d_18_bias                    128/512         weights/weights           const s32             
55     conv2d_18_output                  18432/18432     activations/**default**   s8                    
56     conv2d_18_pad_before_output       25088/25088     activations/**default**   s8                    
57     conv2d_18_scratch0                4737/4737       activations/**default**   s8                    
58     conv2d_18_weights                 1152/1152       weights/weights           const s8              
59     conv2d_19_bias                    128/512         weights/weights           const s32             
60     conv2d_19_output                  18432/18432     activations/**default**   s8                    
61     conv2d_19_scratch0                1792/1792       activations/**default**   s8                    
62     conv2d_19_weights                 16384/16384     weights/weights           const s8              
63     conv2d_1_bias                     8/32            weights/weights           const s32             
64     conv2d_1_output                   73728/73728     activations/**default**   s8                    
65     conv2d_1_scratch0                 652/652         activations/**default**   s8                    
66     conv2d_1_weights                  216/216         weights/weights           const s8              
67     conv2d_20_bias                    128/512         weights/weights           const s32             
68     conv2d_20_output                  18432/18432     activations/**default**   s8                    
69     conv2d_20_pad_before_output       25088/25088     activations/**default**   s8                    
70     conv2d_20_scratch0                4737/4737       activations/**default**   s8                    
71     conv2d_20_weights                 1152/1152       weights/weights           const s8              
72     conv2d_21_bias                    128/512         weights/weights           const s32             
73     conv2d_21_output                  18432/18432     activations/**default**   s8                    
74     conv2d_21_scratch0                1792/1792       activations/**default**   s8                    
75     conv2d_21_weights                 16384/16384     weights/weights           const s8              
76     conv2d_22_bias                    128/512         weights/weights           const s32             
77     conv2d_22_output                  18432/18432     activations/**default**   s8                    
78     conv2d_22_pad_before_output       25088/25088     activations/**default**   s8                    
79     conv2d_22_scratch0                4737/4737       activations/**default**   s8                    
80     conv2d_22_weights                 1152/1152       weights/weights           const s8              
81     conv2d_23_bias                    128/512         weights/weights           const s32             
82     conv2d_23_output                  18432/18432     activations/**default**   s8                    
83     conv2d_23_scratch0                1792/1792       activations/**default**   s8                    
84     conv2d_23_weights                 16384/16384     weights/weights           const s8              
85     conv2d_24_bias                    128/512         weights/weights           const s32             
86     conv2d_24_output                  18432/18432     activations/**default**   s8                    
87     conv2d_24_pad_before_output       25088/25088     activations/**default**   s8                    
88     conv2d_24_scratch0                4737/4737       activations/**default**   s8                    
89     conv2d_24_weights                 1152/1152       weights/weights           const s8              
90     conv2d_25_bias                    128/512         weights/weights           const s32             
91     conv2d_25_output                  18432/18432     activations/**default**   s8                    
92     conv2d_25_scratch0                1792/1792       activations/**default**   s8                    
93     conv2d_25_weights                 16384/16384     weights/weights           const s8              
94     conv2d_26_bias                    128/512         weights/weights           const s32             
95     conv2d_26_output                  18432/18432     activations/**default**   s8                    
96     conv2d_26_pad_before_output       25088/25088     activations/**default**   s8                    
97     conv2d_26_scratch0                4737/4737       activations/**default**   s8                    
98     conv2d_26_weights                 1152/1152       weights/weights           const s8              
99     conv2d_27_bias                    128/512         weights/weights           const s32             
100    conv2d_27_output                  18432/18432     activations/**default**   s8                    
101    conv2d_27_scratch0                1792/1792       activations/**default**   s8                    
102    conv2d_27_weights                 16384/16384     weights/weights           const s8              
103    conv2d_28_bias                    32/128          weights/weights           const s32             
104    conv2d_28_output                  4608/4608       activations/**default**   s8                    
105    conv2d_28_scratch0                832/832         activations/**default**   s8                    
106    conv2d_28_weights                 4096/4096       weights/weights           const s8              
107    conv2d_2_bias                     8/32            weights/weights           const s32             
108    conv2d_2_output                   73728/73728     activations/**default**   s8                    
109    conv2d_2_pad_before_output        76832/76832     activations/**default**   s8                    
110    conv2d_2_scratch0                 297/297         activations/**default**   s8                    
111    conv2d_2_weights                  72/72           weights/weights           const s8              
112    conv2d_30_bias                    128/512         weights/weights           const s32             
113    conv2d_30_output                  4608/4608       activations/**default**   s8                    
114    conv2d_30_pad_before_output       21632/21632     activations/**default**   s8                    
115    conv2d_30_scratch0                4737/4737       activations/**default**   s8                    
116    conv2d_30_weights                 1152/1152       weights/weights           const s8              
117    conv2d_31_bias                    256/1024        weights/weights           const s32             
118    conv2d_31_output                  9216/9216       activations/**default**   s8                    
119    conv2d_31_scratch0                3072/3072       activations/**default**   s8                    
120    conv2d_31_weights                 32768/32768     weights/weights           const s8              
121    conv2d_32_bias                    256/1024        weights/weights           const s32             
122    conv2d_32_output                  9216/9216       activations/**default**   s8                    
123    conv2d_32_pad_before_output       16384/16384     activations/**default**   s8                    
124    conv2d_32_scratch0                9473/9473       activations/**default**   s8                    
125    conv2d_32_weights                 2304/2304       weights/weights           const s8              
126    conv2d_33_bias                    256/1024        weights/weights           const s32             
127    conv2d_33_output                  9216/9216       activations/**default**   s8                    
128    conv2d_33_scratch0                3584/3584       activations/**default**   s8                    
129    conv2d_33_weights                 65536/65536     weights/weights           const s8              
130    conv2d_34_bias                    32/128          weights/weights           const s32             
131    conv2d_34_output                  1152/1152       activations/**default**   s8                    
132    conv2d_34_scratch0                1344/1344       activations/**default**   s8                    
133    conv2d_34_weights                 8192/8192       weights/weights           const s8              
134    conv2d_35_bias                    256/1024        weights/weights           const s32             
135    conv2d_35_output                  2304/2304       activations/**default**   s8                    
136    conv2d_35_pad_before_output       16384/16384     activations/**default**   s8                    
137    conv2d_35_scratch0                9473/9473       activations/**default**   s8                    
138    conv2d_35_weights                 2304/2304       weights/weights           const s8              
139    conv2d_36_bias                    256/1024        weights/weights           const s32             
140    conv2d_36_output                  2304/2304       activations/**default**   s8                    
141    conv2d_36_scratch0                3584/3584       activations/**default**   s8                    
142    conv2d_36_weights                 65536/65536     weights/weights           const s8              
143    conv2d_37_bias                    256/1024        weights/weights           const s32             
144    conv2d_37_output                  2304/2304       activations/**default**   s8                    
145    conv2d_37_pad_before_output       6400/6400       activations/**default**   s8                    
146    conv2d_37_scratch0                9473/9473       activations/**default**   s8                    
147    conv2d_37_weights                 2304/2304       weights/weights           const s8              
148    conv2d_38_bias                    256/1024        weights/weights           const s32             
149    conv2d_38_output                  2304/2304       activations/**default**   s8                    
150    conv2d_38_scratch0                3584/3584       activations/**default**   s8                    
151    conv2d_38_weights                 65536/65536     weights/weights           const s8              
152    conv2d_39_bias                    32/128          weights/weights           const s32             
153    conv2d_39_output                  288/288         activations/**default**   s8                    
154    conv2d_39_scratch0                1344/1344       activations/**default**   s8                    
155    conv2d_39_weights                 8192/8192       weights/weights           const s8              
156    conv2d_3_bias                     16/64           weights/weights           const s32             
157    conv2d_3_output                   147456/147456   activations/**default**   s8                    
158    conv2d_3_scratch0                 192/192         activations/**default**   s8                    
159    conv2d_3_weights                  128/128         weights/weights           const s8              
160    conv2d_45_bias                    32/128          weights/weights           const s32             
161    conv2d_45_output                  32/32           activations/**default**   s8                    
162    conv2d_45_scratch0                1344/1344       activations/**default**   s8                    
163    conv2d_45_weights                 8192/8192       weights/weights           const s8              
164    conv2d_46_bias                    10/40           weights/weights           const s32             
165    conv2d_46_output                  10/10           activations/**default**   s8                    
166    conv2d_46_pad_before_output       288/288         activations/**default**   s8                    
167    conv2d_46_scratch0                6412/6412       activations/**default**   s8                    
168    conv2d_46_weights                 2880/2880       weights/weights           const s8              
169    conv2d_51_bias                    20/80           weights/weights           const s32             
170    conv2d_51_output                  20/20           activations/**default**   s8                    
171    conv2d_51_pad_before_output       288/288         activations/**default**   s8                    
172    conv2d_51_scratch0                6552/6552       activations/**default**   s8                    
173    conv2d_51_weights                 5760/5760       weights/weights           const s8              
174    conv2d_5_bias                     16/64           weights/weights           const s32             
175    conv2d_5_output                   36864/36864     activations/**default**   s8                    
176    conv2d_5_pad_before_output        150544/150544   activations/**default**   s8                    
177    conv2d_5_scratch0                 593/593         activations/**default**   s8                    
178    conv2d_5_weights                  144/144         weights/weights           const s8              
179    conv2d_65_bias                    20/80           weights/weights           const s32             
180    conv2d_65_output                  180/180         activations/**default**   s8                    
181    conv2d_65_pad_before_output       800/800         activations/**default**   s8                    
182    conv2d_65_scratch0                6552/6552       activations/**default**   s8                    
183    conv2d_65_weights                 5760/5760       weights/weights           const s8              
184    conv2d_6_bias                     32/128          weights/weights           const s32             
185    conv2d_6_output                   73728/73728     activations/**default**   s8                    
186    conv2d_6_scratch0                 384/384         activations/**default**   s8                    
187    conv2d_6_weights                  512/512         weights/weights           const s8              
188    conv2d_76_bias                    10/40           weights/weights           const s32             
189    conv2d_76_output                  90/90           activations/**default**   s8                    
190    conv2d_76_pad_before_output       800/800         activations/**default**   s8                    
191    conv2d_76_scratch0                6412/6412       activations/**default**   s8                    
192    conv2d_76_weights                 2880/2880       weights/weights           const s8              
193    conv2d_7_bias                     32/128          weights/weights           const s32             
194    conv2d_7_output                   73728/73728     activations/**default**   s8                    
195    conv2d_7_pad_before_output        80000/80000     activations/**default**   s8                    
196    conv2d_7_scratch0                 1185/1185       activations/**default**   s8                    
197    conv2d_7_weights                  288/288         weights/weights           const s8              
198    conv2d_83_bias                    10/40           weights/weights           const s32             
199    conv2d_83_output                  360/360         activations/**default**   s8                    
200    conv2d_83_pad_before_output       2048/2048       activations/**default**   s8                    
201    conv2d_83_scratch0                6412/6412       activations/**default**   s8                    
202    conv2d_83_weights                 2880/2880       weights/weights           const s8              
203    conv2d_88_bias                    20/80           weights/weights           const s32             
204    conv2d_88_output                  720/720         activations/**default**   s8                    
205    conv2d_88_pad_before_output       2048/2048       activations/**default**   s8                    
206    conv2d_88_scratch0                6552/6552       activations/**default**   s8                    
207    conv2d_88_weights                 5760/5760       weights/weights           const s8              
208    conv2d_8_bias                     32/128          weights/weights           const s32             
209    conv2d_8_output                   73728/73728     activations/**default**   s8                    
210    conv2d_8_scratch0                 448/448         activations/**default**   s8                    
211    conv2d_8_weights                  1024/1024       weights/weights           const s8              
212    conversion_0_output               110592/110593   activations/**default**   s8                    
213    conversion_126_output             7660/30640      activations/**default**   float       /output   
214    conversion_133_output             15320/61280     activations/**default**   float       /output   
215    conversion_141_output             15320/61280     activations/**default**   float       /output   
216    eltwise_100_output                4608/4608       activations/**default**   s8                    
217    eltwise_118_output                18432/18432     activations/**default**   s8                    
218    eltwise_64_output                 288/288         activations/**default**   s8                    
219    eltwise_82_output                 1152/1152       activations/**default**   s8                    
220    nl_125_output                     7660/7660       activations/**default**   s8                    
221    nl_125_scratch0                   248/992         activations/**default**   s32                   
222    pad_63_output                     288/288         activations/**default**   s8                    
223    pool_40_output                    256/256         activations/**default**   s8                    
224    serving_default_input_10_output   110592/110592   activations/**default**   u8          /input    
225    tile_62_output                    128/128         activations/**default**   s8                    
226    upsample_117_output               18432/18432     activations/**default**   s8                    
227    upsample_81_output                1152/1152       activations/**default**   s8                    
228    upsample_99_output                4608/4608       activations/**default**   s8                    
------ --------------------------------- --------------- ------------------------- ----------- --------- 

C-Layers (88)
------ ----------------------- ----- --------------- --------- ------- ------------------------------------ -------------------------- 
c_id   name (*_layer)          id    layer_type      macc      rom     tensors                              shape (array id)           
------ ----------------------- ----- --------------- --------- ------- ------------------------------------ -------------------------- 
1      conversion_0            0     Conversion      221184    0       I: serving_default_input_10_output   uint8(1x192x192x3) (224)   
                                                                       O: conversion_0_output               int8(1x192x192x3) (212)    
------ ----------------------- ----- --------------- --------- ------- ------------------------------------ -------------------------- 
2      conv2d_1                1     Conv2D          1990664   248     I: conversion_0_output               int8(1x192x192x3) (212)    
                                                                       S: conv2d_1_scratch0                                            
                                                                       W: conv2d_1_weights                  int8(8x3x3x3) (66)         
                                                                       W: conv2d_1_bias                     int32(8) (63)              
                                                                       O: conv2d_1_output                   int8(1x96x96x8) (64)       
------ ----------------------- ----- --------------- --------- ------- ------------------------------------ -------------------------- 
3      conv2d_2_pad_before     2     Pad             0         0       I: conv2d_1_output                   int8(1x96x96x8) (64)       
                                                                       O: conv2d_2_pad_before_output        int8(1x98x98x8) (109)      
------ ----------------------- ----- --------------- --------- ------- ------------------------------------ -------------------------- 
4      conv2d_2                2     Conv2D          663560    104     I: conv2d_2_pad_before_output        int8(1x98x98x8) (109)      
                                                                       S: conv2d_2_scratch0                                            
                                                                       W: conv2d_2_weights                  int8(1x3x3x8) (111)        
                                                                       W: conv2d_2_bias                     int32(8) (107)             
                                                                       O: conv2d_2_output                   int8(1x96x96x8) (108)      
------ ----------------------- ----- --------------- --------- ------- ------------------------------------ -------------------------- 
5      conv2d_3                3     Conv2D          1179664   192     I: conv2d_2_output                   int8(1x96x96x8) (108)      
                                                                       S: conv2d_3_scratch0                                            
                                                                       W: conv2d_3_weights                  int8(16x1x1x8) (159)       
                                                                       W: conv2d_3_bias                     int32(16) (156)            
                                                                       O: conv2d_3_output                   int8(1x96x96x16) (157)     
------ ----------------------- ----- --------------- --------- ------- ------------------------------------ -------------------------- 
6      conv2d_5_pad_before     4     Pad             0         0       I: conv2d_3_output                   int8(1x96x96x16) (157)     
                                                                       O: conv2d_5_pad_before_output        int8(1x97x97x16) (176)     
------ ----------------------- ----- --------------- --------- ------- ------------------------------------ -------------------------- 
7      conv2d_5                5     Conv2D          331792    208     I: conv2d_5_pad_before_output        int8(1x97x97x16) (176)     
                                                                       S: conv2d_5_scratch0                                            
                                                                       W: conv2d_5_weights                  int8(1x3x3x16) (178)       
                                                                       W: conv2d_5_bias                     int32(16) (174)            
                                                                       O: conv2d_5_output                   int8(1x48x48x16) (175)     
------ ----------------------- ----- --------------- --------- ------- ------------------------------------ -------------------------- 
8      conv2d_6                6     Conv2D          1179680   640     I: conv2d_5_output                   int8(1x48x48x16) (175)     
                                                                       S: conv2d_6_scratch0                                            
                                                                       W: conv2d_6_weights                  int8(32x1x1x16) (187)      
                                                                       W: conv2d_6_bias                     int32(32) (184)            
                                                                       O: conv2d_6_output                   int8(1x48x48x32) (185)     
------ ----------------------- ----- --------------- --------- ------- ------------------------------------ -------------------------- 
9      conv2d_7_pad_before     7     Pad             0         0       I: conv2d_6_output                   int8(1x48x48x32) (185)     
                                                                       O: conv2d_7_pad_before_output        int8(1x50x50x32) (195)     
------ ----------------------- ----- --------------- --------- ------- ------------------------------------ -------------------------- 
10     conv2d_7                7     Conv2D          663584    416     I: conv2d_7_pad_before_output        int8(1x50x50x32) (195)     
                                                                       S: conv2d_7_scratch0                                            
                                                                       W: conv2d_7_weights                  int8(1x3x3x32) (197)       
                                                                       W: conv2d_7_bias                     int32(32) (193)            
                                                                       O: conv2d_7_output                   int8(1x48x48x32) (194)     
------ ----------------------- ----- --------------- --------- ------- ------------------------------------ -------------------------- 
11     conv2d_8                8     Conv2D          2359328   1152    I: conv2d_7_output                   int8(1x48x48x32) (194)     
                                                                       S: conv2d_8_scratch0                                            
                                                                       W: conv2d_8_weights                  int8(32x1x1x32) (211)      
                                                                       W: conv2d_8_bias                     int32(32) (208)            
                                                                       O: conv2d_8_output                   int8(1x48x48x32) (209)     
------ ----------------------- ----- --------------- --------- ------- ------------------------------------ -------------------------- 
12     conv2d_10_pad_before    9     Pad             0         0       I: conv2d_8_output                   int8(1x48x48x32) (209)     
                                                                       O: conv2d_10_pad_before_output       int8(1x49x49x32) (15)      
------ ----------------------- ----- --------------- --------- ------- ------------------------------------ -------------------------- 
13     conv2d_10               10    Conv2D          165920    416     I: conv2d_10_pad_before_output       int8(1x49x49x32) (15)      
                                                                       S: conv2d_10_scratch0                                           
                                                                       W: conv2d_10_weights                 int8(1x3x3x32) (17)        
                                                                       W: conv2d_10_bias                    int32(32) (13)             
                                                                       O: conv2d_10_output                  int8(1x24x24x32) (14)      
------ ----------------------- ----- --------------- --------- ------- ------------------------------------ -------------------------- 
14     conv2d_11               11    Conv2D          1179712   2304    I: conv2d_10_output                  int8(1x24x24x32) (14)      
                                                                       S: conv2d_11_scratch0                                           
                                                                       W: conv2d_11_weights                 int8(64x1x1x32) (26)       
                                                                       W: conv2d_11_bias                    int32(64) (23)             
                                                                       O: conv2d_11_output                  int8(1x24x24x64) (24)      
------ ----------------------- ----- --------------- --------- ------- ------------------------------------ -------------------------- 
15     conv2d_12_pad_before    12    Pad             0         0       I: conv2d_11_output                  int8(1x24x24x64) (24)      
                                                                       O: conv2d_12_pad_before_output       int8(1x26x26x64) (34)      
------ ----------------------- ----- --------------- --------- ------- ------------------------------------ -------------------------- 
16     conv2d_12               12    Conv2D          331840    832     I: conv2d_12_pad_before_output       int8(1x26x26x64) (34)      
                                                                       S: conv2d_12_scratch0                                           
                                                                       W: conv2d_12_weights                 int8(1x3x3x64) (36)        
                                                                       W: conv2d_12_bias                    int32(64) (32)             
                                                                       O: conv2d_12_output                  int8(1x24x24x64) (33)      
------ ----------------------- ----- --------------- --------- ------- ------------------------------------ -------------------------- 
17     conv2d_13               13    Conv2D          2359360   4352    I: conv2d_12_output                  int8(1x24x24x64) (33)      
                                                                       S: conv2d_13_scratch0                                           
                                                                       W: conv2d_13_weights                 int8(64x1x1x64) (40)       
                                                                       W: conv2d_13_bias                    int32(64) (37)             
                                                                       O: conv2d_13_output                  int8(1x24x24x64) (38)      
------ ----------------------- ----- --------------- --------- ------- ------------------------------------ -------------------------- 
18     conv2d_16_pad_before    15    Pad             0         0       I: conv2d_13_output                  int8(1x24x24x64) (38)      
                                                                       O: conv2d_16_pad_before_output       int8(1x25x25x64) (47)      
------ ----------------------- ----- --------------- --------- ------- ------------------------------------ -------------------------- 
19     conv2d_16               16    Conv2D          83008     832     I: conv2d_16_pad_before_output       int8(1x25x25x64) (47)      
                                                                       S: conv2d_16_scratch0                                           
                                                                       W: conv2d_16_weights                 int8(1x3x3x64) (49)        
                                                                       W: conv2d_16_bias                    int32(64) (45)             
                                                                       O: conv2d_16_output                  int8(1x12x12x64) (46)      
------ ----------------------- ----- --------------- --------- ------- ------------------------------------ -------------------------- 
20     conv2d_17               17    Conv2D          1179776   8704    I: conv2d_16_output                  int8(1x12x12x64) (46)      
                                                                       S: conv2d_17_scratch0                                           
                                                                       W: conv2d_17_weights                 int8(128x1x1x64) (53)      
                                                                       W: conv2d_17_bias                    int32(128) (50)            
                                                                       O: conv2d_17_output                  int8(1x12x12x128) (51)     
------ ----------------------- ----- --------------- --------- ------- ------------------------------------ -------------------------- 
21     conv2d_18_pad_before    18    Pad             0         0       I: conv2d_17_output                  int8(1x12x12x128) (51)     
                                                                       O: conv2d_18_pad_before_output       int8(1x14x14x128) (56)     
------ ----------------------- ----- --------------- --------- ------- ------------------------------------ -------------------------- 
22     conv2d_18               18    Conv2D          166016    1664    I: conv2d_18_pad_before_output       int8(1x14x14x128) (56)     
                                                                       S: conv2d_18_scratch0                                           
                                                                       W: conv2d_18_weights                 int8(1x3x3x128) (58)       
                                                                       W: conv2d_18_bias                    int32(128) (54)            
                                                                       O: conv2d_18_output                  int8(1x12x12x128) (55)     
------ ----------------------- ----- --------------- --------- ------- ------------------------------------ -------------------------- 
23     conv2d_19               19    Conv2D          2359424   16896   I: conv2d_18_output                  int8(1x12x12x128) (55)     
                                                                       S: conv2d_19_scratch0                                           
                                                                       W: conv2d_19_weights                 int8(128x1x1x128) (62)     
                                                                       W: conv2d_19_bias                    int32(128) (59)            
                                                                       O: conv2d_19_output                  int8(1x12x12x128) (60)     
------ ----------------------- ----- --------------- --------- ------- ------------------------------------ -------------------------- 
24     conv2d_20_pad_before    20    Pad             0         0       I: conv2d_19_output                  int8(1x12x12x128) (60)     
                                                                       O: conv2d_20_pad_before_output       int8(1x14x14x128) (69)     
------ ----------------------- ----- --------------- --------- ------- ------------------------------------ -------------------------- 
25     conv2d_20               20    Conv2D          166016    1664    I: conv2d_20_pad_before_output       int8(1x14x14x128) (69)     
                                                                       S: conv2d_20_scratch0                                           
                                                                       W: conv2d_20_weights                 int8(1x3x3x128) (71)       
                                                                       W: conv2d_20_bias                    int32(128) (67)            
                                                                       O: conv2d_20_output                  int8(1x12x12x128) (68)     
------ ----------------------- ----- --------------- --------- ------- ------------------------------------ -------------------------- 
26     conv2d_21               21    Conv2D          2359424   16896   I: conv2d_20_output                  int8(1x12x12x128) (68)     
                                                                       S: conv2d_21_scratch0                                           
                                                                       W: conv2d_21_weights                 int8(128x1x1x128) (75)     
                                                                       W: conv2d_21_bias                    int32(128) (72)            
                                                                       O: conv2d_21_output                  int8(1x12x12x128) (73)     
------ ----------------------- ----- --------------- --------- ------- ------------------------------------ -------------------------- 
27     conv2d_22_pad_before    22    Pad             0         0       I: conv2d_21_output                  int8(1x12x12x128) (73)     
                                                                       O: conv2d_22_pad_before_output       int8(1x14x14x128) (78)     
------ ----------------------- ----- --------------- --------- ------- ------------------------------------ -------------------------- 
28     conv2d_22               22    Conv2D          166016    1664    I: conv2d_22_pad_before_output       int8(1x14x14x128) (78)     
                                                                       S: conv2d_22_scratch0                                           
                                                                       W: conv2d_22_weights                 int8(1x3x3x128) (80)       
                                                                       W: conv2d_22_bias                    int32(128) (76)            
                                                                       O: conv2d_22_output                  int8(1x12x12x128) (77)     
------ ----------------------- ----- --------------- --------- ------- ------------------------------------ -------------------------- 
29     conv2d_23               23    Conv2D          2359424   16896   I: conv2d_22_output                  int8(1x12x12x128) (77)     
                                                                       S: conv2d_23_scratch0                                           
                                                                       W: conv2d_23_weights                 int8(128x1x1x128) (84)     
                                                                       W: conv2d_23_bias                    int32(128) (81)            
                                                                       O: conv2d_23_output                  int8(1x12x12x128) (82)     
------ ----------------------- ----- --------------- --------- ------- ------------------------------------ -------------------------- 
30     conv2d_24_pad_before    24    Pad             0         0       I: conv2d_23_output                  int8(1x12x12x128) (82)     
                                                                       O: conv2d_24_pad_before_output       int8(1x14x14x128) (87)     
------ ----------------------- ----- --------------- --------- ------- ------------------------------------ -------------------------- 
31     conv2d_24               24    Conv2D          166016    1664    I: conv2d_24_pad_before_output       int8(1x14x14x128) (87)     
                                                                       S: conv2d_24_scratch0                                           
                                                                       W: conv2d_24_weights                 int8(1x3x3x128) (89)       
                                                                       W: conv2d_24_bias                    int32(128) (85)            
                                                                       O: conv2d_24_output                  int8(1x12x12x128) (86)     
------ ----------------------- ----- --------------- --------- ------- ------------------------------------ -------------------------- 
32     conv2d_25               25    Conv2D          2359424   16896   I: conv2d_24_output                  int8(1x12x12x128) (86)     
                                                                       S: conv2d_25_scratch0                                           
                                                                       W: conv2d_25_weights                 int8(128x1x1x128) (93)     
                                                                       W: conv2d_25_bias                    int32(128) (90)            
                                                                       O: conv2d_25_output                  int8(1x12x12x128) (91)     
------ ----------------------- ----- --------------- --------- ------- ------------------------------------ -------------------------- 
33     conv2d_26_pad_before    26    Pad             0         0       I: conv2d_25_output                  int8(1x12x12x128) (91)     
                                                                       O: conv2d_26_pad_before_output       int8(1x14x14x128) (96)     
------ ----------------------- ----- --------------- --------- ------- ------------------------------------ -------------------------- 
34     conv2d_26               26    Conv2D          166016    1664    I: conv2d_26_pad_before_output       int8(1x14x14x128) (96)     
                                                                       S: conv2d_26_scratch0                                           
                                                                       W: conv2d_26_weights                 int8(1x3x3x128) (98)       
                                                                       W: conv2d_26_bias                    int32(128) (94)            
                                                                       O: conv2d_26_output                  int8(1x12x12x128) (95)     
------ ----------------------- ----- --------------- --------- ------- ------------------------------------ -------------------------- 
35     conv2d_27               27    Conv2D          2359424   16896   I: conv2d_26_output                  int8(1x12x12x128) (95)     
                                                                       S: conv2d_27_scratch0                                           
                                                                       W: conv2d_27_weights                 int8(128x1x1x128) (102)    
                                                                       W: conv2d_27_bias                    int32(128) (99)            
                                                                       O: conv2d_27_output                  int8(1x12x12x128) (100)    
------ ----------------------- ----- --------------- --------- ------- ------------------------------------ -------------------------- 
36     conv2d_30_pad_before    29    Pad             0         0       I: conv2d_27_output                  int8(1x12x12x128) (100)    
                                                                       O: conv2d_30_pad_before_output       int8(1x13x13x128) (114)    
------ ----------------------- ----- --------------- --------- ------- ------------------------------------ -------------------------- 
37     conv2d_30               30    Conv2D          41600     1664    I: conv2d_30_pad_before_output       int8(1x13x13x128) (114)    
                                                                       S: conv2d_30_scratch0                                           
                                                                       W: conv2d_30_weights                 int8(1x3x3x128) (116)      
                                                                       W: conv2d_30_bias                    int32(128) (112)           
                                                                       O: conv2d_30_output                  int8(1x6x6x128) (113)      
------ ----------------------- ----- --------------- --------- ------- ------------------------------------ -------------------------- 
38     conv2d_31               31    Conv2D          1179904   33792   I: conv2d_30_output                  int8(1x6x6x128) (113)      
                                                                       S: conv2d_31_scratch0                                           
                                                                       W: conv2d_31_weights                 int8(256x1x1x128) (120)    
                                                                       W: conv2d_31_bias                    int32(256) (117)           
                                                                       O: conv2d_31_output                  int8(1x6x6x256) (118)      
------ ----------------------- ----- --------------- --------- ------- ------------------------------------ -------------------------- 
39     conv2d_32_pad_before    32    Pad             0         0       I: conv2d_31_output                  int8(1x6x6x256) (118)      
                                                                       O: conv2d_32_pad_before_output       int8(1x8x8x256) (123)      
------ ----------------------- ----- --------------- --------- ------- ------------------------------------ -------------------------- 
40     conv2d_32               32    Conv2D          83200     3328    I: conv2d_32_pad_before_output       int8(1x8x8x256) (123)      
                                                                       S: conv2d_32_scratch0                                           
                                                                       W: conv2d_32_weights                 int8(1x3x3x256) (125)      
                                                                       W: conv2d_32_bias                    int32(256) (121)           
                                                                       O: conv2d_32_output                  int8(1x6x6x256) (122)      
------ ----------------------- ----- --------------- --------- ------- ------------------------------------ -------------------------- 
41     conv2d_33               33    Conv2D          2359552   66560   I: conv2d_32_output                  int8(1x6x6x256) (122)      
                                                                       S: conv2d_33_scratch0                                           
                                                                       W: conv2d_33_weights                 int8(256x1x1x256) (129)    
                                                                       W: conv2d_33_bias                    int32(256) (126)           
                                                                       O: conv2d_33_output                  int8(1x6x6x256) (127)      
------ ----------------------- ----- --------------- --------- ------- ------------------------------------ -------------------------- 
42     conv2d_35_pad_before    35    Pad             0         0       I: conv2d_33_output                  int8(1x6x6x256) (127)      
                                                                       O: conv2d_35_pad_before_output       int8(1x8x8x256) (136)      
------ ----------------------- ----- --------------- --------- ------- ------------------------------------ -------------------------- 
43     conv2d_35               35    Conv2D          20992     3328    I: conv2d_35_pad_before_output       int8(1x8x8x256) (136)      
                                                                       S: conv2d_35_scratch0                                           
                                                                       W: conv2d_35_weights                 int8(1x3x3x256) (138)      
                                                                       W: conv2d_35_bias                    int32(256) (134)           
                                                                       O: conv2d_35_output                  int8(1x3x3x256) (135)      
------ ----------------------- ----- --------------- --------- ------- ------------------------------------ -------------------------- 
44     conv2d_36               36    Conv2D          590080    66560   I: conv2d_35_output                  int8(1x3x3x256) (135)      
                                                                       S: conv2d_36_scratch0                                           
                                                                       W: conv2d_36_weights                 int8(256x1x1x256) (142)    
                                                                       W: conv2d_36_bias                    int32(256) (139)           
                                                                       O: conv2d_36_output                  int8(1x3x3x256) (140)      
------ ----------------------- ----- --------------- --------- ------- ------------------------------------ -------------------------- 
45     conv2d_37_pad_before    37    Pad             0         0       I: conv2d_36_output                  int8(1x3x3x256) (140)      
                                                                       O: conv2d_37_pad_before_output       int8(1x5x5x256) (145)      
------ ----------------------- ----- --------------- --------- ------- ------------------------------------ -------------------------- 
46     conv2d_37               37    Conv2D          20992     3328    I: conv2d_37_pad_before_output       int8(1x5x5x256) (145)      
                                                                       S: conv2d_37_scratch0                                           
                                                                       W: conv2d_37_weights                 int8(1x3x3x256) (147)      
                                                                       W: conv2d_37_bias                    int32(256) (143)           
                                                                       O: conv2d_37_output                  int8(1x3x3x256) (144)      
------ ----------------------- ----- --------------- --------- ------- ------------------------------------ -------------------------- 
47     conv2d_38               38    Conv2D          590080    66560   I: conv2d_37_output                  int8(1x3x3x256) (144)      
                                                                       S: conv2d_38_scratch0                                           
                                                                       W: conv2d_38_weights                 int8(256x1x1x256) (151)    
                                                                       W: conv2d_38_bias                    int32(256) (148)           
                                                                       O: conv2d_38_output                  int8(1x3x3x256) (149)      
------ ----------------------- ----- --------------- --------- ------- ------------------------------------ -------------------------- 
48     pool_40                 40    Pool            2304      0       I: conv2d_38_output                  int8(1x3x3x256) (149)      
                                                                       O: pool_40_output                    int8(1x1x1x256) (223)      
------ ----------------------- ----- --------------- --------- ------- ------------------------------------ -------------------------- 
49     conv2d_45               45    Conv2D          8224      8320    I: pool_40_output                    int8(1x1x1x256) (223)      
                                                                       S: conv2d_45_scratch0                                           
                                                                       W: conv2d_45_weights                 int8(32x1x1x256) (163)     
                                                                       W: conv2d_45_bias                    int32(32) (160)            
                                                                       O: conv2d_45_output                  int8(1x1x1x32) (161)       
------ ----------------------- ----- --------------- --------- ------- ------------------------------------ -------------------------- 
50     conv2d_46_pad_before    46    Pad             0         0       I: conv2d_45_output                  int8(1x1x1x32) (161)       
                                                                       O: conv2d_46_pad_before_output       int8(1x3x3x32) (166)       
------ ----------------------- ----- --------------- --------- ------- ------------------------------------ -------------------------- 
51     conv2d_46               46    Conv2D          2890      2920    I: conv2d_46_pad_before_output       int8(1x3x3x32) (166)       
                                                                       S: conv2d_46_scratch0                                           
                                                                       W: conv2d_46_weights                 int8(10x3x3x32) (168)      
                                                                       W: conv2d_46_bias                    int32(10) (164)            
                                                                       O: conv2d_46_output                  int8(1x1x1x10) (165)       
------ ----------------------- ----- --------------- --------- ------- ------------------------------------ -------------------------- 
52     conv2d_51_pad_before    51    Pad             0         0       I: conv2d_45_output                  int8(1x1x1x32) (161)       
                                                                       O: conv2d_51_pad_before_output       int8(1x3x3x32) (171)       
------ ----------------------- ----- --------------- --------- ------- ------------------------------------ -------------------------- 
53     conv2d_51               51    Conv2D          5780      5840    I: conv2d_51_pad_before_output       int8(1x3x3x32) (171)       
                                                                       S: conv2d_51_scratch0                                           
                                                                       W: conv2d_51_weights                 int8(20x3x3x32) (173)      
                                                                       W: conv2d_51_bias                    int32(20) (169)            
                                                                       O: conv2d_51_output                  int8(1x1x1x20) (170)       
------ ----------------------- ----- --------------- --------- ------- ------------------------------------ -------------------------- 
54     tile_62                 62    Tile            0         0       I: conv2d_45_output                  int8(1x1x1x32) (161)       
                                                                       O: tile_62_output                    int8(1x2x2x32) (225)       
------ ----------------------- ----- --------------- --------- ------- ------------------------------------ -------------------------- 
55     pad_63                  63    Pad             0         0       I: tile_62_output                    int8(1x2x2x32) (225)       
                                                                       O: pad_63_output                     int8(1x3x3x32) (222)       
------ ----------------------- ----- --------------- --------- ------- ------------------------------------ -------------------------- 
56     conv2d_39               39    Conv2D          73760     8320    I: conv2d_38_output                  int8(1x3x3x256) (149)      
                                                                       S: conv2d_39_scratch0                                           
                                                                       W: conv2d_39_weights                 int8(32x1x1x256) (155)     
                                                                       W: conv2d_39_bias                    int32(32) (152)            
                                                                       O: conv2d_39_output                  int8(1x3x3x32) (153)       
------ ----------------------- ----- --------------- --------- ------- ------------------------------------ -------------------------- 
57     eltwise_64              64    Eltwise/add     288       0       I: conv2d_39_output                  int8(1x3x3x32) (153)       
                                                                       I: pad_63_output                     int8(1x3x3x32) (153)       
                                                                       O: eltwise_64_output                 int8(1x3x3x32) (218)       
------ ----------------------- ----- --------------- --------- ------- ------------------------------------ -------------------------- 
58     conv2d_65_pad_before    65    Pad             0         0       I: eltwise_64_output                 int8(1x3x3x32) (218)       
                                                                       O: conv2d_65_pad_before_output       int8(1x5x5x32) (181)       
------ ----------------------- ----- --------------- --------- ------- ------------------------------------ -------------------------- 
59     conv2d_65               65    Conv2D          51860     5840    I: conv2d_65_pad_before_output       int8(1x5x5x32) (181)       
                                                                       S: conv2d_65_scratch0                                           
                                                                       W: conv2d_65_weights                 int8(20x3x3x32) (183)      
                                                                       W: conv2d_65_bias                    int32(20) (179)            
                                                                       O: conv2d_65_output                  int8(1x3x3x20) (180)       
------ ----------------------- ----- --------------- --------- ------- ------------------------------------ -------------------------- 
60     conv2d_76_pad_before    76    Pad             0         0       I: eltwise_64_output                 int8(1x3x3x32) (218)       
                                                                       O: conv2d_76_pad_before_output       int8(1x5x5x32) (190)       
------ ----------------------- ----- --------------- --------- ------- ------------------------------------ -------------------------- 
61     conv2d_76               76    Conv2D          25930     2920    I: conv2d_76_pad_before_output       int8(1x5x5x32) (190)       
                                                                       S: conv2d_76_scratch0                                           
                                                                       W: conv2d_76_weights                 int8(10x3x3x32) (192)      
                                                                       W: conv2d_76_bias                    int32(10) (188)            
                                                                       O: conv2d_76_output                  int8(1x3x3x10) (189)       
------ ----------------------- ----- --------------- --------- ------- ------------------------------------ -------------------------- 
62     upsample_81             81    Upsample        4608      0       I: eltwise_64_output                 int8(1x3x3x32) (218)       
                                                                       O: upsample_81_output                int8(1x6x6x32) (227)       
------ ----------------------- ----- --------------- --------- ------- ------------------------------------ -------------------------- 
63     conv2d_34               34    Conv2D          294944    8320    I: conv2d_33_output                  int8(1x6x6x256) (127)      
                                                                       S: conv2d_34_scratch0                                           
                                                                       W: conv2d_34_weights                 int8(32x1x1x256) (133)     
                                                                       W: conv2d_34_bias                    int32(32) (130)            
                                                                       O: conv2d_34_output                  int8(1x6x6x32) (131)       
------ ----------------------- ----- --------------- --------- ------- ------------------------------------ -------------------------- 
64     eltwise_82              82    Eltwise/add     1152      0       I: conv2d_34_output                  int8(1x6x6x32) (131)       
                                                                       I: upsample_81_output                int8(1x6x6x32) (131)       
                                                                       O: eltwise_82_output                 int8(1x6x6x32) (219)       
------ ----------------------- ----- --------------- --------- ------- ------------------------------------ -------------------------- 
65     conv2d_83_pad_before    83    Pad             0         0       I: eltwise_82_output                 int8(1x6x6x32) (219)       
                                                                       O: conv2d_83_pad_before_output       int8(1x8x8x32) (200)       
------ ----------------------- ----- --------------- --------- ------- ------------------------------------ -------------------------- 
66     conv2d_83               83    Conv2D          103690    2920    I: conv2d_83_pad_before_output       int8(1x8x8x32) (200)       
                                                                       S: conv2d_83_scratch0                                           
                                                                       W: conv2d_83_weights                 int8(10x3x3x32) (202)      
                                                                       W: conv2d_83_bias                    int32(10) (198)            
                                                                       O: conv2d_83_output                  int8(1x6x6x10) (199)       
------ ----------------------- ----- --------------- --------- ------- ------------------------------------ -------------------------- 
67     conv2d_88_pad_before    88    Pad             0         0       I: eltwise_82_output                 int8(1x6x6x32) (219)       
                                                                       O: conv2d_88_pad_before_output       int8(1x8x8x32) (205)       
------ ----------------------- ----- --------------- --------- ------- ------------------------------------ -------------------------- 
68     conv2d_88               88    Conv2D          207380    5840    I: conv2d_88_pad_before_output       int8(1x8x8x32) (205)       
                                                                       S: conv2d_88_scratch0                                           
                                                                       W: conv2d_88_weights                 int8(20x3x3x32) (207)      
                                                                       W: conv2d_88_bias                    int32(20) (203)            
                                                                       O: conv2d_88_output                  int8(1x6x6x20) (204)       
------ ----------------------- ----- --------------- --------- ------- ------------------------------------ -------------------------- 
69     upsample_99             99    Upsample        18432     0       I: eltwise_82_output                 int8(1x6x6x32) (219)       
                                                                       O: upsample_99_output                int8(1x12x12x32) (228)     
------ ----------------------- ----- --------------- --------- ------- ------------------------------------ -------------------------- 
70     conv2d_28               28    Conv2D          589856    4224    I: conv2d_27_output                  int8(1x12x12x128) (100)    
                                                                       S: conv2d_28_scratch0                                           
                                                                       W: conv2d_28_weights                 int8(32x1x1x128) (106)     
                                                                       W: conv2d_28_bias                    int32(32) (103)            
                                                                       O: conv2d_28_output                  int8(1x12x12x32) (104)     
------ ----------------------- ----- --------------- --------- ------- ------------------------------------ -------------------------- 
71     eltwise_100             100   Eltwise/add     4608      0       I: conv2d_28_output                  int8(1x12x12x32) (104)     
                                                                       I: upsample_99_output                int8(1x12x12x32) (104)     
                                                                       O: eltwise_100_output                int8(1x12x12x32) (216)     
------ ----------------------- ----- --------------- --------- ------- ------------------------------------ -------------------------- 
72     conv2d_101_pad_before   101   Pad             0         0       I: eltwise_100_output                int8(1x12x12x32) (216)     
                                                                       O: conv2d_101_pad_before_output      int8(1x14x14x32) (5)       
------ ----------------------- ----- --------------- --------- ------- ------------------------------------ -------------------------- 
73     conv2d_101              101   Conv2D          414730    2920    I: conv2d_101_pad_before_output      int8(1x14x14x32) (5)       
                                                                       S: conv2d_101_scratch0                                          
                                                                       W: conv2d_101_weights                int8(10x3x3x32) (7)        
                                                                       W: conv2d_101_bias                   int32(10) (3)              
                                                                       O: conv2d_101_output                 int8(1x12x12x10) (4)       
------ ----------------------- ----- --------------- --------- ------- ------------------------------------ -------------------------- 
74     conv2d_106_pad_before   106   Pad             0         0       I: eltwise_100_output                int8(1x12x12x32) (216)     
                                                                       O: conv2d_106_pad_before_output      int8(1x14x14x32) (10)      
------ ----------------------- ----- --------------- --------- ------- ------------------------------------ -------------------------- 
75     conv2d_106              106   Conv2D          829460    5840    I: conv2d_106_pad_before_output      int8(1x14x14x32) (10)      
                                                                       S: conv2d_106_scratch0                                          
                                                                       W: conv2d_106_weights                int8(20x3x3x32) (12)       
                                                                       W: conv2d_106_bias                   int32(20) (8)              
                                                                       O: conv2d_106_output                 int8(1x12x12x20) (9)       
------ ----------------------- ----- --------------- --------- ------- ------------------------------------ -------------------------- 
76     upsample_117            117   Upsample        73728     0       I: eltwise_100_output                int8(1x12x12x32) (216)     
                                                                       O: upsample_117_output               int8(1x24x24x32) (226)     
------ ----------------------- ----- --------------- --------- ------- ------------------------------------ -------------------------- 
77     conv2d_14               14    Conv2D          1179680   2176    I: conv2d_13_output                  int8(1x24x24x64) (38)      
                                                                       S: conv2d_14_scratch0                                           
                                                                       W: conv2d_14_weights                 int8(32x1x1x64) (44)       
                                                                       W: conv2d_14_bias                    int32(32) (41)             
                                                                       O: conv2d_14_output                  int8(1x24x24x32) (42)      
------ ----------------------- ----- --------------- --------- ------- ------------------------------------ -------------------------- 
78     eltwise_118             118   Eltwise/add     18432     0       I: conv2d_14_output                  int8(1x24x24x32) (42)      
                                                                       I: upsample_117_output               int8(1x24x24x32) (42)      
                                                                       O: eltwise_118_output                int8(1x24x24x32) (217)     
------ ----------------------- ----- --------------- --------- ------- ------------------------------------ -------------------------- 
79     conv2d_119_pad_before   119   Pad             0         0       I: eltwise_118_output                int8(1x24x24x32) (217)     
                                                                       O: conv2d_119_pad_before_output      int8(1x26x26x32) (20)      
------ ----------------------- ----- --------------- --------- ------- ------------------------------------ -------------------------- 
80     conv2d_119              119   Conv2D          1658890   2920    I: conv2d_119_pad_before_output      int8(1x26x26x32) (20)      
                                                                       S: conv2d_119_scratch0                                          
                                                                       W: conv2d_119_weights                int8(10x3x3x32) (22)       
                                                                       W: conv2d_119_bias                   int32(10) (18)             
                                                                       O: conv2d_119_output                 int8(1x24x24x10) (19)      
------ ----------------------- ----- --------------- --------- ------- ------------------------------------ -------------------------- 
81     concat_124              124   Concat          0         0       I: conv2d_119_output                 int8(1x24x24x10) (19)      
                                                                       I: conv2d_101_output                 int8(1x24x24x10) (19)      
                                                                       I: conv2d_83_output                  int8(1x24x24x10) (19)      
                                                                       I: conv2d_76_output                  int8(1x24x24x10) (19)      
                                                                       I: conv2d_46_output                  int8(1x24x24x10) (19)      
                                                                       O: concat_124_output                 int8(1x3830x2) (0)         
------ ----------------------- ----- --------------- --------- ------- ------------------------------------ -------------------------- 
82     nl_125                  125   Nonlinearity    114900    0       I: concat_124_output                 int8(1x3830x2) (0)         
                                                                       S: nl_125_scratch0                                              
                                                                       O: nl_125_output                     int8(1x3830x2) (220)       
------ ----------------------- ----- --------------- --------- ------- ------------------------------------ -------------------------- 
83     conversion_126          126   Conversion      15320     0       I: nl_125_output                     int8(1x3830x2) (220)       
                                                                       O: conversion_126_output             f32(1x3830x2) (213)        
------ ----------------------- ----- --------------- --------- ------- ------------------------------------ -------------------------- 
84     conv2d_127_pad_before   127   Pad             0         0       I: eltwise_118_output                int8(1x24x24x32) (217)     
                                                                       O: conv2d_127_pad_before_output      int8(1x26x26x32) (29)      
------ ----------------------- ----- --------------- --------- ------- ------------------------------------ -------------------------- 
85     conv2d_127              127   Conv2D          3317780   5840    I: conv2d_127_pad_before_output      int8(1x26x26x32) (29)      
                                                                       S: conv2d_127_scratch0                                          
                                                                       W: conv2d_127_weights                int8(20x3x3x32) (31)       
                                                                       W: conv2d_127_bias                   int32(20) (27)             
                                                                       O: conv2d_127_output                 int8(1x24x24x20) (28)      
------ ----------------------- ----- --------------- --------- ------- ------------------------------------ -------------------------- 
86     concat_132              132   Concat          0         0       I: conv2d_127_output                 int8(1x24x24x20) (28)      
                                                                       I: conv2d_106_output                 int8(1x24x24x20) (28)      
                                                                       I: conv2d_88_output                  int8(1x24x24x20) (28)      
                                                                       I: conv2d_65_output                  int8(1x24x24x20) (28)      
                                                                       I: conv2d_51_output                  int8(1x24x24x20) (28)      
                                                                       O: concat_132_output                 int8(1x3830x4) (1)         
------ ----------------------- ----- --------------- --------- ------- ------------------------------------ -------------------------- 
87     conversion_133          133   Conversion      30640     0       I: concat_132_output                 int8(1x3830x4) (1)         
                                                                       O: conversion_133_output             f32(1x3830x4) (214)        
------ ----------------------- ----- --------------- --------- ------- ------------------------------------ -------------------------- 



Number of operations per c-layer
------- ------ ----------------------------- ------------ ------------- 
c_id    m_id   name (type)                            #op          type 
------- ------ ----------------------------- ------------ ------------- 
0       141    conversion_141 (Conversion)         30,640    smul_s8_s8 
1       0      conversion_0 (Conversion)          221,184    smul_u8_s8 
2       1      conv2d_1 (Conv2D)                1,990,664    smul_s8_s8 
3       2      conv2d_2_pad_before (Pad)                0    smul_s8_s8 
4       2      conv2d_2 (Conv2D)                  663,560    smul_s8_s8 
5       3      conv2d_3 (Conv2D)                1,179,664    smul_s8_s8 
6       4      conv2d_5_pad_before (Pad)                0    smul_s8_s8 
7       5      conv2d_5 (Conv2D)                  331,792    smul_s8_s8 
8       6      conv2d_6 (Conv2D)                1,179,680    smul_s8_s8 
9       7      conv2d_7_pad_before (Pad)                0    smul_s8_s8 
10      7      conv2d_7 (Conv2D)                  663,584    smul_s8_s8 
11      8      conv2d_8 (Conv2D)                2,359,328    smul_s8_s8 
12      9      conv2d_10_pad_before (Pad)               0    smul_s8_s8 
13      10     conv2d_10 (Conv2D)                 165,920    smul_s8_s8 
14      11     conv2d_11 (Conv2D)               1,179,712    smul_s8_s8 
15      12     conv2d_12_pad_before (Pad)               0    smul_s8_s8 
16      12     conv2d_12 (Conv2D)                 331,840    smul_s8_s8 
17      13     conv2d_13 (Conv2D)               2,359,360    smul_s8_s8 
18      15     conv2d_16_pad_before (Pad)               0    smul_s8_s8 
19      16     conv2d_16 (Conv2D)                  83,008    smul_s8_s8 
20      17     conv2d_17 (Conv2D)               1,179,776    smul_s8_s8 
21      18     conv2d_18_pad_before (Pad)               0    smul_s8_s8 
22      18     conv2d_18 (Conv2D)                 166,016    smul_s8_s8 
23      19     conv2d_19 (Conv2D)               2,359,424    smul_s8_s8 
24      20     conv2d_20_pad_before (Pad)               0    smul_s8_s8 
25      20     conv2d_20 (Conv2D)                 166,016    smul_s8_s8 
26      21     conv2d_21 (Conv2D)               2,359,424    smul_s8_s8 
27      22     conv2d_22_pad_before (Pad)               0    smul_s8_s8 
28      22     conv2d_22 (Conv2D)                 166,016    smul_s8_s8 
29      23     conv2d_23 (Conv2D)               2,359,424    smul_s8_s8 
30      24     conv2d_24_pad_before (Pad)               0    smul_s8_s8 
31      24     conv2d_24 (Conv2D)                 166,016    smul_s8_s8 
32      25     conv2d_25 (Conv2D)               2,359,424    smul_s8_s8 
33      26     conv2d_26_pad_before (Pad)               0    smul_s8_s8 
34      26     conv2d_26 (Conv2D)                 166,016    smul_s8_s8 
35      27     conv2d_27 (Conv2D)               2,359,424    smul_s8_s8 
36      29     conv2d_30_pad_before (Pad)               0    smul_s8_s8 
37      30     conv2d_30 (Conv2D)                  41,600    smul_s8_s8 
38      31     conv2d_31 (Conv2D)               1,179,904    smul_s8_s8 
39      32     conv2d_32_pad_before (Pad)               0    smul_s8_s8 
40      32     conv2d_32 (Conv2D)                  83,200    smul_s8_s8 
41      33     conv2d_33 (Conv2D)               2,359,552    smul_s8_s8 
42      35     conv2d_35_pad_before (Pad)               0    smul_s8_s8 
43      35     conv2d_35 (Conv2D)                  20,992    smul_s8_s8 
44      36     conv2d_36 (Conv2D)                 590,080    smul_s8_s8 
45      37     conv2d_37_pad_before (Pad)               0    smul_s8_s8 
46      37     conv2d_37 (Conv2D)                  20,992    smul_s8_s8 
47      38     conv2d_38 (Conv2D)                 590,080    smul_s8_s8 
48      40     pool_40 (Pool)                       2,304    smul_s8_s8 
49      45     conv2d_45 (Conv2D)                   8,224    smul_s8_s8 
50      46     conv2d_46_pad_before (Pad)               0    smul_s8_s8 
51      46     conv2d_46 (Conv2D)                   2,890    smul_s8_s8 
52      51     conv2d_51_pad_before (Pad)               0    smul_s8_s8 
53      51     conv2d_51 (Conv2D)                   5,780    smul_s8_s8 
54      62     tile_62 (Tile)                           0    smul_s8_s8 
55      63     pad_63 (Pad)                             0    smul_s8_s8 
56      39     conv2d_39 (Conv2D)                  73,760    smul_s8_s8 
57      64     eltwise_64 (Eltwise/add)               288      op_s8_s8 
58      65     conv2d_65_pad_before (Pad)               0    smul_s8_s8 
59      65     conv2d_65 (Conv2D)                  51,860    smul_s8_s8 
60      76     conv2d_76_pad_before (Pad)               0    smul_s8_s8 
61      76     conv2d_76 (Conv2D)                  25,930    smul_s8_s8 
62      81     upsample_81 (Upsample)               4,608    smul_s8_s8 
63      34     conv2d_34 (Conv2D)                 294,944    smul_s8_s8 
64      82     eltwise_82 (Eltwise/add)             1,152      op_s8_s8 
65      83     conv2d_83_pad_before (Pad)               0    smul_s8_s8 
66      83     conv2d_83 (Conv2D)                 103,690    smul_s8_s8 
67      88     conv2d_88_pad_before (Pad)               0    smul_s8_s8 
68      88     conv2d_88 (Conv2D)                 207,380    smul_s8_s8 
69      99     upsample_99 (Upsample)              18,432    smul_s8_s8 
70      28     conv2d_28 (Conv2D)                 589,856    smul_s8_s8 
71      100    eltwise_100 (Eltwise/add)            4,608      op_s8_s8 
72      101    conv2d_101_pad_before (Pad)              0    smul_s8_s8 
73      101    conv2d_101 (Conv2D)                414,730    smul_s8_s8 
74      106    conv2d_106_pad_before (Pad)              0    smul_s8_s8 
75      106    conv2d_106 (Conv2D)                829,460    smul_s8_s8 
76      117    upsample_117 (Upsample)             73,728    smul_s8_s8 
77      14     conv2d_14 (Conv2D)               1,179,680    smul_s8_s8 
78      118    eltwise_118 (Eltwise/add)           18,432      op_s8_s8 
79      119    conv2d_119_pad_before (Pad)              0    smul_s8_s8 
80      119    conv2d_119 (Conv2D)              1,658,890    smul_s8_s8 
81      124    concat_124 (Concat)                      0    smul_s8_s8 
82      125    nl_125 (Nonlinearity)              114,900      op_s8_s8 
83      126    conversion_126 (Conversion)         15,320   smul_s8_f32 
84      127    conv2d_127_pad_before (Pad)              0    smul_s8_s8 
85      127    conv2d_127 (Conv2D)              3,317,780    smul_s8_s8 
86      132    concat_132 (Concat)                      0    smul_s8_s8 
87      133    conversion_133 (Conversion)         30,640   smul_s8_f32 
------- ------ ----------------------------- ------------ ------------- 
total                                          40,482,578 

Number of operation types
---------------- ------------ ----------- 
operation type              #           % 
---------------- ------------ ----------- 
smul_s8_s8         40,076,054       99.0% 
smul_u8_s8            221,184        0.5% 
op_s8_s8              139,380        0.3% 
smul_s8_f32            45,960        0.1% 

Complexity report (model)
------ -------------------------- ------------------------- ------------------------- ---------- 
m_id   name                       c_macc                    c_rom                     c_id       
------ -------------------------- ------------------------- ------------------------- ---------- 
0      serving_default_input_10   |                  0.5%   |                  0.0%   [1]        
1      conv2d_1                   |||||||||          4.9%   |                  0.1%   [2]        
2      conv2d_2                   ||||               1.6%   |                  0.0%   [3, 4]     
3      conv2d_3                   ||||||             2.9%   |                  0.0%   [5]        
4      pad_4                      |                  0.0%   |                  0.0%   [6]        
5      conv2d_5                   ||                 0.8%   |                  0.0%   [7]        
6      conv2d_6                   ||||||             2.9%   |                  0.1%   [8]        
7      conv2d_7                   ||||               1.6%   |                  0.1%   [9, 10]    
8      conv2d_8                   |||||||||||        5.8%   |                  0.3%   [11]       
9      pad_9                      |                  0.0%   |                  0.0%   [12]       
10     conv2d_10                  |                  0.4%   |                  0.1%   [13]       
11     conv2d_11                  ||||||             2.9%   |                  0.5%   [14]       
12     conv2d_12                  ||                 0.8%   |                  0.2%   [15, 16]   
13     conv2d_13                  |||||||||||        5.8%   |                  1.0%   [17]       
14     conv2d_14                  ||||||             2.9%   |                  0.5%   [77]       
15     pad_15                     |                  0.0%   |                  0.0%   [18]       
16     conv2d_16                  |                  0.2%   |                  0.2%   [19]       
17     conv2d_17                  ||||||             2.9%   ||                 1.9%   [20]       
18     conv2d_18                  |                  0.4%   |                  0.4%   [21, 22]   
19     conv2d_19                  |||||||||||        5.8%   ||||               3.8%   [23]       
20     conv2d_20                  |                  0.4%   |                  0.4%   [24, 25]   
21     conv2d_21                  |||||||||||        5.8%   ||||               3.8%   [26]       
22     conv2d_22                  |                  0.4%   |                  0.4%   [27, 28]   
23     conv2d_23                  |||||||||||        5.8%   ||||               3.8%   [29]       
24     conv2d_24                  |                  0.4%   |                  0.4%   [30, 31]   
25     conv2d_25                  |||||||||||        5.8%   ||||               3.8%   [32]       
26     conv2d_26                  |                  0.4%   |                  0.4%   [33, 34]   
27     conv2d_27                  |||||||||||        5.8%   ||||               3.8%   [35]       
28     conv2d_28                  |||                1.5%   |                  0.9%   [70]       
29     pad_29                     |                  0.0%   |                  0.0%   [36]       
30     conv2d_30                  |                  0.1%   |                  0.4%   [37]       
31     conv2d_31                  ||||||             2.9%   ||||||||           7.5%   [38]       
32     conv2d_32                  |                  0.2%   |                  0.7%   [39, 40]   
33     conv2d_33                  |||||||||||        5.8%   ||||||||||||||||  14.8%   [41]       
34     conv2d_34                  ||                 0.7%   ||                 1.9%   [63]       
35     conv2d_35                  |                  0.1%   |                  0.7%   [42, 43]   
36     conv2d_36                  |||                1.5%   ||||||||||||||||  14.8%   [44]       
37     conv2d_37                  |                  0.1%   |                  0.7%   [45, 46]   
38     conv2d_38                  |||                1.5%   ||||||||||||||||  14.8%   [47]       
39     conv2d_39                  |                  0.2%   ||                 1.9%   [56]       
40     pool_40                    |                  0.0%   |                  0.0%   [48]       
45     conv2d_45                  |                  0.0%   ||                 1.9%   [49]       
46     conv2d_46                  |                  0.0%   |                  0.7%   [50, 51]   
51     conv2d_51                  |                  0.0%   ||                 1.3%   [52, 53]   
62     tile_62                    |                  0.0%   |                  0.0%   [54]       
63     pad_63                     |                  0.0%   |                  0.0%   [55]       
64     eltwise_64                 |                  0.0%   |                  0.0%   [57]       
65     conv2d_65                  |                  0.1%   ||                 1.3%   [58, 59]   
76     conv2d_76                  |                  0.1%   |                  0.7%   [60, 61]   
81     upsample_81                |                  0.0%   |                  0.0%   [62]       
82     eltwise_82                 |                  0.0%   |                  0.0%   [64]       
83     conv2d_83                  |                  0.3%   |                  0.7%   [65, 66]   
88     conv2d_88                  |                  0.5%   ||                 1.3%   [67, 68]   
99     upsample_99                |                  0.0%   |                  0.0%   [69]       
100    eltwise_100                |                  0.0%   |                  0.0%   [71]       
101    conv2d_101                 ||                 1.0%   |                  0.7%   [72, 73]   
106    conv2d_106                 ||||               2.0%   ||                 1.3%   [74, 75]   
117    upsample_117               |                  0.2%   |                  0.0%   [76]       
118    eltwise_118                |                  0.0%   |                  0.0%   [78]       
119    conv2d_119                 ||||||||           4.1%   |                  0.7%   [79, 80]   
124    concat_124                 |                  0.0%   |                  0.0%   [81]       
125    nl_125                     |                  0.3%   |                  0.0%   [82]       
126    conversion_126             |                  0.0%   |                  0.0%   [83]       
127    conv2d_127                 ||||||||||||||||   8.2%   ||                 1.3%   [84, 85]   
132    concat_132                 |                  0.0%   |                  0.0%   [86]       
133    conversion_133             |                  0.1%   |                  0.0%   [87]       
141    conversion_141             |                  0.1%   ||||               3.4%   [0]        
------ -------------------------- ------------------------- ------------------------- ---------- 
macc=40,482,578 weights=448,800 act=246,256 ram_io=0

Generated files (7)
--------------------------------------------------------------- 
C:\Users\al\.stm32cubemx\network_output\network_data_params.h   
C:\Users\al\.stm32cubemx\network_output\network_data_params.c   
C:\Users\al\.stm32cubemx\network_output\network_data.h          
C:\Users\al\.stm32cubemx\network_output\network_data.c          
C:\Users\al\.stm32cubemx\network_output\network_config.h        
C:\Users\al\.stm32cubemx\network_output\network.h               
C:\Users\al\.stm32cubemx\network_output\network.c               
